model_weights.pth (torch, 72772 bytes, 5 tensors)

conv_stack.0.weight f4 [12, 5, 9, 9]
0	0x3ccef698	0.02526407
1	0xbcc91952	-0.024548206
2	0x3cea6fc8	0.028617755
3	0x3d40a7b7	0.047034945
4	0xbd161214	-0.036638334
5	0xbc07fa87	-0.0082994765
6	0x3c92754b	0.017878195
7	0xbc901233	-0.017586803
8	0xbc5767c0	-0.0131472945
9	0x3d49672b	0.049170654
10	0xbd494982	-0.04914237
11	0x3d02154d	0.031758595
12	0xbd1a042c	-0.037601635
13	0xbd0f1ad5	-0.0349377
14	0xbc7a8ad7	-0.015291891
15	0xbb98071e	-0.0046395203
16	0xbccd7113	-0.025078332
17	0x3bea2343	0.007145317
18	0x3a0317fb	0.0005000827
19	0x3cf9218e	0.030411508
20	0xb9d7c266	-0.00041152834
21	0xbcc8efc6	-0.024528395
22	0x3d20e774	0.03928323
23	0x3d3a9865	0.04555549
24	0xbb717b35	-0.0036847119
25	0x3ce89bf6	0.02839468
26	0xbd1767e1	-0.0369643
27	0x3d451f91	0.048125807
28	0xbd3c1d0d	-0.045926142
29	0xbb6dffac	-0.0036315722
30	0x3c839894	0.016063966
31	0x3c882dba	0.016623367
32	0x3bc3333e	0.0059570363
33	0xbc164e25	-0.009173905
34	0xbca2d395	-0.01987628
35	0xbd33a700	-0.043860435
36	0xbd3b41fd	-0.04571723
37	0x3cb5ff11	0.022216352
38	0xbd3f1d59	-0.046658847
39	0xbcbc7946	-0.023007046
40	0xbbff9f52	-0.007800975
41	0x3c5fffb5	0.013671805
42	0xbcfc1007	-0.030769361
43	0x3caa7176	0.020806056
44	0xbd35d3b2	-0.04439134
45	0xbc91e753	-0.0178105
46	0xbd32f5bf	-0.043691393
47	0xbc7e0499	-0.015504026
48	0x3c884b0b	0.016637346
49	0xbc8d0d55	-0.017218271
50	0xbd45316d	-0.04814284
51	0x3ce9daf0	0.02854678
52	0xbacf9245	-0.0015836438
53	0xbc7eaa35	-0.01554351
54	0xbc304f91	-0.010761158
55	0x3d0f959f	0.0350548
56	0x3d11e5b1	0.03561944
57	0x3cc0dcf0	0.023542851
58	0xbd27383b	-0.04082511
59	0x3ce97124	0.028496332
60	0x3d10c9ba	0.03534863
61	0x3d4552b0	0.04817456
62	0xbcbceea7	-0.023063017
63	0xbc99e6b8	-0.018786773
64	0x3d333224	0.04374899
65	0x3d00e015	0.0314637
66	0xbd2a5c9a	-0.041592218
67	0x3cbfd893	0.0234187
68	0x3d31abcc	0.04337673
69	0x3d17141a	0.036884405
70	0x3cd9eb12	0.026601348
71	0x3d2c1e16	0.04202088
72	0xbbe1a04b	-0.0068855635
73	0x3caab424	0.02083785
74	0x3d3b137e	0.045672886
75	0xbb6a29f7	-0.003573058
76	0xbb9f72d0	-0.0048659816
77	0x3cde44a0	0.027132332
78	0xbcd3a999	-0.025837706
79	0xbbb89766	-0.0056332825
80	0x3d0d3944	0.03447844
81	0xbd10c159	-0.03534064
82	0x3d46d616	0.048544012
83	0x3cacefa1	0.021110358
84	0xbd40cf4f	-0.047072705
85	0x3cbde656	0.023181122
86	0x3d386053	0.045013737
87	0x3d29aaf6	0.041422807
88	0xbc38be62	-0.01127586
89	0xbc5b06d6	-0.013368329
90	0xbd130f93	-0.035903525
91	0xbc1d054a	-0.009583781
92	0x3c87f7b3	0.016597604
93	0xbcb1f553	-0.021723425
94	0x3d3ba2b8	0.045809478
95	0x3c23c3f2	0.0099954475
96	0xbc7629a8	-0.01502458
97	0x3c486138	0.01223021
98	0x3d4be6d8	0.049780697
99	0x3d310556	0.04321798
100	0xbb453af4	-0.0030094953
101	0xbce8126a	-0.028329093
102	0xbccd50d6	-0.02506296
103	0xbca45826	-0.020061564
104	0xbc626f1c	-0.013820436
105	0x3c6c7395	0.014431854
106	0x3d2bab7e	0.041911595
107	0x3cce9383	0.025216823
108	0x3d1f7d29	0.03893772
109	0x3b425dbf	0.0029657928
110	0x3d0f754e	0.03502398
111	0xbaa3870d	-0.0012476161
112	0xbc14dee8	-0.009086348
113	0xbc740bfe	-0.014895437
114	0x3d400e04	0.046888366
115	0x3d1ce757	0.03830656
116	0x3c3653df	0.011128395
117	0x3ca8fdbb	0.0206288
118	0x3d453a90	0.048151553
119	0x3d390c9b	0.045178037
120	0x3a77110b	0.0009424842
121	0x3c1c4a08	0.009539135
122	0x3c927a14	0.017880477
123	0xbd05bd40	-0.032651186
124	0x3be60a52	0.0070202732
125	0x3b2006f5	0.002441821
126	0xbcd1f517	-0.025629563
127	0x3cbd9879	0.023143994
128	0xbcc95833	-0.02457819
129	0xbd3c41da	-0.04596124
130	0x3d48ecd5	0.049053986
131	0xbcad70a1	-0.02117187
132	0x3c7789f2	0.015108572
133	0xbd1ae1f4	-0.037813142
134	0xbc9bcf4c	-0.019019745
135	0x3d17416e	0.036927633
136	0xba077888	-0.0005167802
137	0xbad12204	-0.0015955572
138	0xbc88ecbc	-0.016714446
139	0xbc99167b	-0.018687477
140	0x3d0d5bcc	0.034511372
141	0x3c6c6f35	0.014430811
142	0xbc714abe	-0.014727293
143	0xbbabf432	-0.005247616
144	0x3ca9f5ee	0.020747151
145	0xbd46fe70	-0.048582494
146	0x3bdd24a2	0.0067487517
147	0xbd432c84	-0.047649875
148	0x3bd7d9d6	0.0065872474
149	0x3b176cda	0.0023105652
150	0xbc303f94	-0.010757346
151	0xbd270013	-0.040771555
152	0xbc54ad2a	-0.012980739
153	0xbd33bb59	-0.04387984
154	0xbd299ca2	-0.041409142
155	0x3d3c260d	0.045934726
156	0xbb62d4cb	-0.0034611698
157	0x3c1a61c0	0.0094227195
158	0x3b1e87b0	0.0024189763
159	0xbc33ab9a	-0.010966206
160	0x3cf80723	0.03027684
161	0x3cc7222e	0.02430829
162	0xbcef30da	-0.029198099
163	0x3d34aab0	0.044108093
164	0xbb87f93c	-0.004149584
165	0x3a8db41f	0.0010811127
166	0xbce5272d	-0.027972782
167	0xbb2394f3	-0.0024960607
168	0x3d107b22	0.03527368
169	0xbd1b8c35	-0.03797551
170	0xbc37bfaf	-0.0112151345
171	0xbcadf017	-0.021232648
172	0x3d3535b0	0.044240654
173	0xbc0fe6a9	-0.008783021
174	0x3d2a1c41	0.04153085
175	0xbcaaf451	-0.020868452
176	0xbba2b15a	-0.0049649896
177	0xbc993b2f	-0.018704979
178	0x3ca11c91	0.019666942
179	0xbd241535	-0.040059287
180	0x3d217755	0.039420445
181	0x3c72aeb2	0.014812158
182	0xbcc15654	-0.023600735
183	0x3a0c4427	0.00053507317
184	0xbc3bf813	-0.01147272
185	0xbbba7d67	-0.0056912187
186	0xbd1469dc	-0.036233768
187	0x3d185ee8	0.037199885
188	0x3cbfecf4	0.023428418
189	0xbcffa127	-0.031204773
190	0xbd070045	-0.03295924
191	0xbc873b23	-0.01650769
192	0xb8697589	-5.5660992e-05
193	0xbcbb8cf6	-0.022894364
194	0x3d1bd0b1	0.03804082
195	0x3c095bca	0.008383701
196	0xbd06ca21	-0.03290761
197	0x3d0fb7a3	0.03508724
198	0x3ab37f05	0.0013694471
199	0x3ce4c9d0	0.027928263
200	0xbd2618f7	-0.040551152
201	0x3d20cf2a	0.039260067
202	0xbce98b7f	-0.0285089
203	0x3ca2ed8d	0.019888664
204	0x3d3f806c	0.046753332
205	0x3d2f3149	0.04277161
206	0xbc4e0e79	-0.012576693
207	0x3bb76b6e	0.0055975234
208	0xbb81047d	-0.0039373026
209	0x3bd0c548	0.006371174
210	0x3ced4dfa	0.028967846
211	0xbd3e88ce	-0.046517186
212	0x3bbfdc10	0.005855091
213	0xbd06aece	-0.03288155
214	0x3c91749c	0.017755799
215	0x381b49b2	3.7023514e-05
216	0x3c8fc845	0.01755155
217	0x3d218213	0.03943069
218	0xbcc048b9	-0.023472177
219	0x3d24b736	0.040213786
220	0x3d3239a5	0.043512005
221	0xbcd9c7b9	-0.026584493
222	0xbd0b80a3	-0.034058224
223	0x3c5b9ae0	0.013403624
224	0xbd1ee7ff	-0.038795467
225	0xbcad1059	-0.02112596
226	0xbc8e72b4	-0.01738868
227	0x3d4ccd88	0.050000697
228	0xbc26591d	-0.010153082
229	0xbd06a7de	-0.032874934
230	0x3d3c9c4c	0.046047494
231	0x3d3faf1e	0.046797864
232	0xbca7ebf0	-0.020498246
233	0xbd02ac6f	-0.031902727
234	0x3d09a836	0.033607684
235	0xbd212e9a	-0.039351083
236	0xbc1c4b70	-0.00953947
237	0xbc2fa1e4	-0.01071975
238	0xbc0e510a	-0.008686313
239	0x3d090d1f	0.03345978
240	0xbd3ee431	-0.04660434
241	0x3cb1eb07	0.021718515
242	0x3a60a943	0.0008570144
243	0x3c9bd0c2	0.019020442
244	0xbca83e7b	-0.020537606
245	0x3c9ce38c	0.019151472
246	0x3b1a2275	0.0023519073
247	0xbbc642f0	-0.00605046
248	0x3bff4366	0.007790017
249	0xbd4e997c	-0.050439343
250	0xbd099778	-0.033591717
251	0x3d263368	0.04057637
252	0xbd51b14d	-0.051194478
253	0xbc84ac56	-0.016195457
254	0xbce3fbf2	-0.027830098
255	0xbd5fa395	-0.054599363

conv_stack.0.bias f4 [12]
0	0xbd1964d3	-0.03744967
1	0x3b83ea61	0.004025743
2	0xbc50c4ba	-0.012742216
3	0x3d17f191	0.03709561
4	0x3931320b	0.00016898678
5	0x3d0e9588	0.034810573
6	0x3cf4d6eb	0.029887637
7	0xbc314109	-0.010818728
8	0xbcce0b20	-0.02515179
9	0xbcf88a1a	-0.03033929
10	0x3d4bfab0	0.04979962
11	0xbd2f0fa4	-0.042739525

conv_stack.2.weight f4 [12, 12, 9, 9]
0	0x3c9ad166	0.018898677
1	0xbc8ab520	-0.01693207
2	0x3b7d6348	0.0038663913
3	0xbc5006c7	-0.012696928
4	0xbc4427f3	-0.011972415
5	0x3ccbb990	0.024868757
6	0xbcc8ba3d	-0.024502868
7	0x3ca5b317	0.020226998
8	0x3c09fcc6	0.008422082
9	0x3c74c211	0.014938847
10	0x3c7cf746	0.015439814
11	0xbc9753a3	-0.018472498
12	0xbbef545a	-0.0073037567
13	0xbd1418aa	-0.036156334
14	0xbcd3bcb9	-0.025846826
15	0x3ca6ae1c	0.020346694
16	0x3c8192f4	0.015817143
17	0xbb496c3b	-0.0030734676
18	0xbb593efb	-0.0033149112
19	0xbbd5a733	-0.006520176
20	0xbca8f5eb	-0.020625075
21	0x3c85849a	0.01629858
22	0x3ba8850e	0.0051428145
23	0xbc80e60b	-0.015734693
24	0xbca2be2d	-0.019866074
25	0xbcaa5cf1	-0.020796271
26	0xbcf19c21	-0.029493393
27	0x3cc01871	0.023449155
28	0x3c96a39e	0.018388566
29	0xbd096387	-0.033542182
30	0x3cb1e563	0.021715825
31	0xbd0064f6	-0.031346284
32	0x3c21cc70	0.009875402
33	0xbd15e46b	-0.03659479
34	0xbcc68e4b	-0.024237772
35	0x3b6c59b4	0.003606421
36	0xbd05768c	-0.03258376
37	0xbc7c2cde	-0.015391557
38	0xbc93e8b8	-0.018055305
39	0xbd0eca3f	-0.034860846
40	0x3c2a288b	0.010385643
41	0x3bc4995e	0.005999728
42	0xbd141c18	-0.036159605
43	0xbcbdceb9	-0.023169862
44	0xbd048fa2	-0.03236354
45	0xbbf668c2	-0.0075198123
46	0xbcee408e	-0.029083516
47	0xbc973553	-0.018458044
48	0xbc8c61e2	-0.017136518
49	0xb4b49554	-3.3636263e-07
50	0xbc87b345	-0.016564975
51	0xbceefdeb	-0.029173812
52	0xbc10b8d0	-0.008833125
53	0xbd0aa61b	-0.033849817
54	0xbc7b1127	-0.015323914
55	0xbce8e545	-0.028429637
56	0xbc556617	-0.013024828
57	0xbc43aead	-0.011943501
58	0x3c230c4e	0.009951664
59	0xbcfcd8a4	-0.030865021
60	0xbc0a4a8b	-0.008440624
61	0xbce4dc0f	-0.027936963
62	0xbca10914	-0.01965765
63	0x3c98381b	0.01858144
64	0x3c195156	0.009357771
65	0xbd0e92d0	-0.03480798
66	0x3cbff543	0.02343238
67	0x3bcce6dd	0.006253107
68	0xbca93690	-0.0206559
69	0xbc91d4f7	-0.017801745
70	0x3c34217f	0.010994314
71	0xbcec4c80	-0.028845072
72	0xbbb90918	-0.005646836
73	0xbcf60aa3	-0.030034369
74	0xbcaf427e	-0.02139401
75	0x3b9d7009	0.0048046154
76	0xbca6ad03	-0.02034617
77	0xbd069ecb	-0.03286628
78	0x3cca7314	0.024713077
79	0xbc98a2a0	-0.018632233
80	0x3acd14dc	0.0015646475
81	0xbbdca1d8	-0.0067331605
82	0x3c39e58d	0.011346233
83	0xbc58a313	-0.013222474
84	0x3c4e28f4	0.012583006
85	0x3c76328b	0.015026699
86	0x3abf6183	0.0014601204
87	0x3cbe5a89	0.02323653
88	0x3c5965e3	0.013268921
89	0xbbca9777	-0.006182607
90	0xbbc360b6	-0.0059624566
91	0x3b95d07c	0.0045719724
92	0xbcc52b57	-0.024068518
93	0xbc48a765	-0.012246941
94	0x3c898a9d	0.016789729
95	0x3ce4f338	0.027948007
96	0x3c28c583	0.010300997
97	0x3c83e4f3	0.016100382
98	0x3c5bec8c	0.013423096
99	0xbbfed82b	-0.007777234
100	0x3c073e82	0.008254649
101	0x3cf9a4d4	0.030474104
102	0x3cb97dec	0.022643052
103	0xbc53b287	-0.012920982
104	0x3cd312a4	0.025765724
105	0x3b17b7b0	0.0023150258
106	0x3c8d9259	0.017281698
107	0xbad44e7b	-0.0016197705
108	0xbca01181	-0.019539597
109	0x3cd2af26	0.025718283
110	0x3ce46683	0.027880913
111	0x3ca89499	0.02057867
112	0x3aa44e67	0.0012535573
113	0xbc8bfeeb	-0.017089328
114	0x3d00466c	0.03131716
115	0xba8162bd	-0.0009871345
116	0xbce250aa	-0.027626354
117	0x3cf5af03	0.029990679
118	0x3c65bfbb	0.014022763
119	0xbc47a362	-0.01218495
120	0x3c6553d2	0.013997035
121	0x3cd489fe	0.025944706
122	0xbc605bf3	-0.013693797
123	0x3c1a4abc	0.009417232
124	0x3c600cb3	0.013674903
125	0xb8fb7394	-0.00011990141
126	0x3ac2413f	0.001482047
127	0x3ce20eee	0.02759501
128	0xbcba786a	-0.022762496
129	0x3cdc485e	0.026889976
130	0xbcd5c0a6	-0.026092838
131	0xbccc06ee	-0.024905648
132	0x3bea02f2	0.0071414644
133	0xbc5f6aa6	-0.013636267
134	0x3c87d4d6	0.01658098
135	0xbc7286dd	-0.014802662
136	0x3c76fbb7	0.015074662
137	0xbc96b54d	-0.018396998
138	0x3c3eeb07	0.011652715
139	0xbcf0e413	-0.02940563
140	0x3c4bdf25	0.0124433385
141	0xbcc26880	-0.02373147
142	0x3c393df2	0.011306273
143	0x3c833b0c	0.016019367
144	0xba5dfb86	-0.0008467961
145	0xbcd6bf51	-0.026214274
146	0x3cfa23d3	0.03053466
147	0x3c0a6d7c	0.008448955
148	0xbccf2299	-0.025285052
149	0x3cd529ce	0.02602091
150	0xbc982b61	-0.018575372
151	0x3d07690c	0.033059165
152	0x3d079936	0.033105098
153	0x3cb2cfa7	0.021827532
154	0x3cea35e1	0.028590145
155	0xbc26f994	-0.01019134
156	0x3bd3f6ff	0.006468653
157	0xbce5b34f	-0.028039603
158	0x3cdb96ad	0.026805246
159	0x3ccdbeba	0.02511536
160	0x3c913e2c	0.017729841
161	0x3ca7de32	0.020491693
162	0xbcd69965	-0.026196191
163	0xbcbb8763	-0.022891706
164	0xbcb7eba0	-0.022451222
165	0xbcce1883	-0.025158172
166	0x3b349bdb	0.0027558717
167	0x3b5ab0f8	0.0033369642
168	0x3a40a19e	0.00073483016
169	0xbbd110c2	-0.0063801715
170	0xbce5a544	-0.028032906
171	0x3d090198	0.033448786
172	0xbc92d62a	-0.017924387
173	0x3b7a1c4d	0.0038163841
174	0xbca0ee9f	-0.019645033
175	0xbc519b3e	-0.01279336
176	0xbc97dbdf	-0.01853746
177	0xbced1bf7	-0.028943999
178	0x3c19bca9	0.009383359
179	0xbcf68200	-0.030091286
180	0xbce1cc6c	-0.027563296
181	0x3d05205e	0.03250157
182	0x3be5ccb9	0.0070129302
183	0x3cb29657	0.021800203
184	0x3c4c8675	0.012483229
185	0xbba39e58	-0.0049932413
186	0x3c2b3bdb	0.010451282
187	0xbc71354e	-0.0147221815
188	0xbcb71f9d	-0.022353942
189	0xbb8a73ca	-0.004225229
190	0xbce81a77	-0.028332932
191	0xbbb4292f	-0.0054980735
192	0xbcde9ad8	-0.027173445
193	0x3cee6ff6	0.029106122
194	0xbcab8429	-0.020937042
195	0xbc359dd3	-0.0110849915
196	0x38e17086	0.00010749795
197	0xbc55ca1b	-0.013048674
198	0x3c9a1b85	0.01881195
199	0x3bb401a3	0.005493359
200	0x39d05189	0.000397336
201	0x3c987bc4	0.018613704
202	0xbbbf21b6	-0.005832876
203	0x3cf5d8db	0.030010631
204	0x3d012ded	0.03153794
205	0x3c9fb336	0.019494634
206	0xbc35f9d2	-0.011106925
207	0xbcfd0e6b	-0.030890664
208	0x3ca9bd65	0.020720193
209	0x3ca82a56	0.020528
210	0xbcdb9ded	-0.026808703
211	0xbcf3b373	-0.029748654
212	0x3c3b04df	0.011414736
213	0x3cf82b93	0.030294215
214	0x3cc0eb50	0.023549706
215	0xbd007ce1	-0.031369094
216	0x3c98ee46	0.018668305
217	0x3b0f8974	0.0021901997
218	0x3c6bca7c	0.014391538
219	0xbb7e550e	-0.003880802
220	0x3c850575	0.016237954
221	0x3c1343d4	0.008988339
222	0xbcfeb947	-0.031094206
223	0x3cba63ed	0.022752726
224	0xbcc05539	-0.023478137
225	0x3bc5822c	0.0060274806
226	0xbb177419	-0.002310997
227	0xb84a73a4	-4.826825e-05
228	0xbc9e4436	-0.019319635
229	0x3ccbb55d	0.024866754
230	0xbcc21a8c	-0.0236943
231	0xbc20fe5e	-0.009826271
232	0xbc212e00	-0.009837627
233	0xbcb434cd	-0.021997834
234	0xbcba100a	-0.022712726
235	0xb9b0c8c7	-0.00033718927
236	0x3c6bebff	0.014399528
237	0x3b3f209a	0.002916372
238	0x3cdb712f	0.026787369
239	0xbcbd0e9d	-0.023078257
240	0x3cbdd6ee	0.023173776
241	0xbcec69a9	-0.028858976
242	0x3c872983	0.016499287
243	0x3cbf6afa	0.02336644
244	0xbb3da5d8	-0.0028937962
245	0xbc2eb1ef	-0.01066254
246	0x39a6a944	0.000317881
247	0xbc824168	-0.015900329
248	0x3ced9e7a	0.029006232
249	0x3c893126	0.016747069
250	0x3ca1bb2f	0.019742576
251	0x3cd220d7	0.025650425
252	0x3cc809d0	0.024418741
253	0x3cd41669	0.025889592
254	0x3c11ede9	0.00890682
255	0x3d09c988	0.03363946

conv_stack.2.bias f4 [12]
0	0x3c9cfb79	0.01916288
1	0x3ce1c430	0.02755937
2	0xbbe6a693	-0.0070389
3	0xbc4a1da3	-0.0123361675
4	0x3c24ac42	0.010050835
5	0x3cca8fdf	0.024726806
6	0xbb5c2784	-0.003359289
7	0xb9a6fe1c	-0.00031851314
8	0xbcec90a9	-0.028877573
9	0xbc42bb65	-0.011885499
10	0x3cd19d05	0.025587568
11	0x3c08db03	0.008352998

conv_stack.4.weight f4 [1, 12, 9, 9]
0	0xbbe8f4f5	-0.0071092793
1	0x3c3a35c0	0.011365354
2	0x3c4cb59d	0.012494472
3	0x3d0b0328	0.033938557
4	0x3cfe3902	0.031033043
5	0x3c9ac984	0.018894918
6	0x3c34ef43	0.011043373
7	0x3ce8ba34	0.028409101
8	0x3c8e6f4f	0.01738706
9	0xbc38813d	-0.011261282
10	0x3c582466	0.013192272
11	0x3c2c9479	0.0105334455
12	0x3d0a8b0a	0.033824004
13	0x3ce5ed0c	0.028067134
14	0xbc34e6ea	-0.011041382
15	0x3cf7b109	0.030235784
16	0x3c8c6dae	0.017142143
17	0xbb69c093	-0.0035667762
18	0xbc8d314e	-0.017235424
19	0xbc32a471	-0.010903464
20	0x3d063089	0.03276113
21	0x3c9cd7d0	0.019145876
22	0xbc4a7164	-0.012356136
23	0x3c9dbfa6	0.019256424
24	0xbbc8eb7e	-0.0061315885
25	0xbc8077c6	-0.015682112
26	0xbc846ec2	-0.016166095
27	0x3d0c1e94	0.03420885
28	0x3c37bdee	0.011214716
29	0x3b9349f7	0.0044949013
30	0xbbb06fc5	-0.0053844177
31	0x3c381289	0.011234888
32	0x3cd64c6e	0.026159491
33	0xb9193c1f	-0.00014613614
34	0x3c44598a	0.011984238
35	0x3d1255a4	0.035726205
36	0x3c24a4d9	0.010049068
37	0x3ca3f2d7	0.020013256
38	0x3b23429f	0.0024911535
39	0x3ae6d267	0.0017610312
40	0x3c8b7d2e	0.017027464
41	0x39d5fa0d	0.00040812828
42	0x3cc2d804	0.023784645
43	0xbca15427	-0.019693447
44	0x3c0f17c7	0.008733696
45	0x3c8b3e74	0.016997553
46	0x3bdbc287	0.006706539
47	0xbcb68c73	-0.022283768
48	0xbc68337b	-0.01417243
49	0x3c264d03	0.010150197
50	0xbc5f900b	-0.013645182
51	0x3cb44703	0.022006517
52	0x3d0fc92b	0.035103958
53	0x3ceb1110	0.02869466
54	0xbbdb5441	-0.0066933935
55	0x3ce8da2c	0.028424345
56	0xbb8c4e02	-0.00428176
57	0x3d119873	0.035545778
58	0x3c885998	0.016644284
59	0x3b91c670	0.0044487044
60	0x3d04b080	0.032394886
61	0x3c8dea4f	0.017323641
62	0x3ce96c19	0.028493928
63	0xb726948d	-9.928958e-06
64	0x3ce974f9	0.02849816
65	0x3d1ac533	0.03778572
66	0x3d0cf3e5	0.034412283
67	0x3c0076f8	0.007840864
68	0x39b19b98	0.00033875997
69	0xbc0ebfa0	-0.008712679
70	0x3d1a6723	0.037696015
71	0x3cc679ae	0.024227943
72	0xbc856f1e	-0.016288336
73	0x3d09908e	0.033585124
74	0x3c15adf1	0.009135709
75	0xbc659b12	-0.014014022
76	0xbc295855	-0.010336001
77	0x3c98d008	0.018653885
78	0x3c8d0b94	0.017217435
79	0xbc02b5d0	-0.007977918
80	0xbc5a98da	-0.013342107
81	0x3ca189f9	0.01971911
82	0x3c881e7d	0.0166161
83	0xbc95c9c1	-0.01828468
84	0xbce77d7d	-0.02825808
85	0x3cb5d10d	0.02219441
86	0xbc900947	-0.017582549
87	0x3cbebf14	0.023284473
88	0xbccd56d6	-0.02506582
89	0xbc53f837	-0.012937597
90	0x3cf1cb5e	0.029515918
91	0xbc6e80b3	-0.0145570515
92	0xbc4ca9db	-0.012491669
93	0x3a837c76	0.0010031599
94	0xbaa51ad7	-0.00125965
95	0x3a7c81af	0.00096323615
96	0xbcdbd137	-0.02683316
97	0x3c4aa55b	0.012368525
98	0xbc7e84da	-0.015534604
99	0xbcd2d026	-0.025734019
100	0x3b837e54	0.004012862
101	0x3a20f3a4	0.0006139821
102	0x3ca33c1e	0.019926127
103	0x3cfecce0	0.031103551
104	0xbc758f0a	-0.014987716
105	0x3c3a0a1f	0.011354952
106	0xbcf8a2c1	-0.030351045
107	0xbcd01637	-0.025401218
108	0x3c822f52	0.015891705
109	0x3cea9975	0.028637627
110	0x3ce4b93e	0.027920362
111	0xbcfcea95	-0.030873576
112	0xbc94e3fa	-0.018175114
113	0x3ced1799	0.028941916
114	0x3affdac3	0.0019520152
115	0xbc6bd8bb	-0.014394934
116	0x3cfc8036	0.030822854
117	0xbc872159	-0.016495394
118	0xbcef594c	-0.029217385
119	0x3c6e483c	0.014543589
120	0x3c75a70b	0.014993439
121	0x3cce9e07	0.025221838
122	0x3cfa6ea1	0.03057033
123	0xbc1d7c4e	-0.009612156
124	0xbcd43659	-0.025904821
125	0xbb90f433	-0.004423642
126	0x3b664718	0.003513759
127	0x3c81f64f	0.01586452
128	0x3ccac972	0.02475426
129	0xbc77329d	-0.015087751
130	0x3bef3bec	0.0073008444
131	0x3c85e56b	0.016344747
132	0xbc2910b5	-0.010318925
133	0xbc716f2f	-0.014735981
134	0xbc4c6aa8	-0.012476601
135	0xbbf74137	-0.007545616
136	0xbcdfad68	-0.027304366
137	0x3c90db10	0.017682582
138	0x3cc72ae1	0.024312438
139	0xbcf29ea5	-0.029616663
140	0x3cb747fd	0.022373194
141	0xba277c9b	-0.0006389112
142	0x3c06b561	0.008221955
143	0xbcce522d	-0.025185669
144	0x3ca8b7e6	0.020595502
145	0x3ca056f2	0.019572709
146	0x3cce211e	0.025162276
147	0xbca03837	-0.019558055
148	0xbb74a6c8	-0.0037330855
149	0x3cf4cb33	0.02988205
150	0x3cc4fcf8	0.024046406
151	0x3b9a6f3c	0.004712967
152	0x3c366a61	0.011133761
153	0xbbdb5836	-0.006693865
154	0x3c69f47d	0.014279482
155	0xbc04d848	-0.008108206
156	0x386859f6	5.5396893e-05
157	0x3c319a6a	0.010840038
158	0xbc910651	-0.017703207
159	0xbce2bf35	-0.027679065
160	0x3c219e01	0.009864331
161	0x3c024c00	0.00795269
162	0xbbb2c861	-0.005456016
163	0xbc986fce	-0.018608
164	0xbbc90c26	-0.0061354814
165	0x3c079889	0.008276113
166	0x3cd5ff0c	0.026122592
167	0xbb87e495	-0.004147122
168	0x3c02cbb9	0.007983142
169	0xbbc95303	-0.006143929
170	0xbcb5694e	-0.02214494
171	0x3c51f05e	0.012813656
172	0xbc3fcfad	-0.011707229
173	0x3ce88500	0.028383732
174	0xbc243446	-0.010022229
175	0xbcd3d971	-0.02586052
176	0x3d009750	0.031394303
177	0x3c36f613	0.011167067
178	0xbacd1015	-0.0015645052
179	0xbcc31d36	-0.02381764
180	0x3969a370	0.00022281497
181	0xbbc4ec19	-0.0060095903
182	0xbc99bc11	-0.018766435
183	0x3c3178a6	0.0108319875
184	0xbaeb2061	-0.0017938727
185	0x3c5c4d0c	0.013446104
186	0xbc8c025d	-0.01709097
187	0xbc128e4b	-0.008945058
188	0xbb9c8eb0	-0.004777752
189	0x3cb8e527	0.022570206
190	0xbcdc8608	-0.02691938
191	0xbc619aac	-0.013769787
192	0x3c116fe3	0.0088767735
193	0xbc87785b	-0.016536882
194	0xbc0e9795	-0.008703132
195	0xbc5d3a97	-0.013502738
196	0xbb9eb508	-0.004843358
197	0xbcd50bb1	-0.026006551
198	0x3c0184d5	0.007905205
199	0x3ce07f74	0.027404524
200	0x3c89cfac	0.016822658
201	0xbc4c969e	-0.012487082
202	0x3cb40620	0.021975577
203	0x3a67ebf1	0.00088471087
204	0x3ca2adda	0.01985829
205	0xbc26efa0	-0.010188967
206	0x3cab2b9e	0.020894822
207	0xbcad1b87	-0.02113129
208	0xbc7b3706	-0.015332943
209	0x3d027e66	0.031858824
210	0x3c963031	0.018333526
211	0x3c7d5ced	0.01546405
212	0x3c358be5	0.011080717
213	0xbcf0df9c	-0.0294035
214	0x3c0b1741	0.008489431
215	0x3cb1a6c2	0.021685962
216	0xbcd47a8a	-0.025937337
217	0xbc83bfa5	-0.016082594
218	0x3c415ad5	0.011801441
219	0xbbf5eaa0	-0.007504776
220	0x3bc76347	0.006084833
221	0xbbb66982	-0.0055667767
222	0x3c7db51b	0.015485073
223	0xbaf6138d	-0.0018774137
224	0xbc782fd9	-0.0151481265
225	0x3bf14ae6	0.007363665
226	0x3ca2bf27	0.01986654
227	0xbc568bc5	-0.013094847
228	0x3cadb5a4	0.021204777
229	0x3966fcf1	0.00022028737
230	0xbcf283be	-0.029603835
231	0xbaa21647	-0.0012366258
232	0x3cba3bb0	0.02273354
233	0xbbd9106f	-0.0066242735
234	0xbc6536ef	-0.013990148
235	0xbc00d8b8	-0.00786417
236	0xbc583fce	-0.013198806
237	0xbc0a8dea	-0.0084566865
238	0x3c90a418	0.017656371
239	0xbce5cc48	-0.02805151
240	0x3ca34d0a	0.019934196
241	0xbca93c29	-0.02065857
242	0xbcdc7ca2	-0.026914898
243	0x3cb4f79f	0.022090731
244	0x3ccc741b	0.024957707
245	0x3c6cf50d	0.0144627215
246	0x3ced4f43	0.028968459
247	0x3c10afc1	0.0088309655
248	0x3c8fc2ca	0.017548937
249	0x3ce2cd43	0.027685767
250	0x3cd36174	0.025803305
251	0x3ccaf65c	0.024775676
252	0xbc9174c3	-0.017755872
253	0x3cd0a400	0.025468826
254	0xbcea7b3b	-0.028623214
255	0xbcdaa212	-0.02668861
